model/model.pth (torch, 22729 bytes, 4 tensors)

linear1.weight f4 [256, 16]
000000 49 b3 1e be b0 95 14 3e a5 ce 01 be da 93 24 3e
       -0.1549808 0.14510226 -0.12676485 0.16072026
000010 f7 23 88 bd d5 af 1b 3d e4 2f 1c 3e a7 04 2b be
       -0.06647485 0.038009483 0.15252644 -0.16700993
000020 9a c5 24 bd 35 7e 49 bc 5e 9d f6 3c c7 f6 ae bd
       -0.04022751 -0.0122981565 0.030104335 -0.08543163
000030 27 d3 97 be 2a cd 9c be 08 08 8e bd 9c 45 47 3e
       -0.29653284 -0.30625278 -0.069351256 0.19460148
000040 98 4f 25 3d f1 9b 49 3e f1 c7 cc be 54 44 ba 3e
       0.04035911 0.19688393 -0.39996293 0.36380255
000050 10 43 22 3e 40 a9 0e be 82 7b 11 bf 49 68 04 bf
       0.15845895 -0.13931751 -0.5682908 -0.51721627
000060 e1 57 a9 be f9 ce 20 3e f2 3c 9e 3e 52 20 9f bc
       -0.3307486 0.15703954 0.30905873 -0.019424591
000070 81 df b2 3d 71 59 00 bc 7f ad 3c be 01 69 10 bf
       0.08734036 -0.0078338245 -0.18425559 -0.56410223
000080 ad f8 13 be 02 d6 40 3c e5 e0 15 bd 2f 72 ea be
       -0.14450331 0.011769773 -0.03659143 -0.4579024
000090 82 ed 4f bd fa 88 f3 3d ed c7 21 3f e1 84 18 3f
       -0.050763614 0.118913606 0.6319569 0.5957776
0000a0 b8 97 b2 3e 26 a8 cd bd cd f0 e4 be 9d 33 87 3d
       0.34881377 -0.100418374 -0.44714966 0.06601641
0000b0 f2 19 f9 3d 4d 9f 94 bd 77 d4 23 3d c2 6c ae 3e
       0.12163152 -0.07256947 0.039997544 0.3406735
0000c0 55 02 08 bf a0 74 3f 3e 35 13 6e 3d d8 29 d3 3d
       -0.5312856 0.18696833 0.058123786 0.103107154
0000d0 9f da e6 be 06 d3 58 3e ca 53 30 bc 35 a2 b1 be
       -0.4508867 0.21174249 -0.010762164 -0.34694067
0000e0 4d c5 89 bf 51 f1 e8 3d 45 9b 24 bc 4e 18 da 3c
       -1.0763336 0.113741525 -0.010046785 0.026622918
0000f0 4d a1 c4 3e 49 4d 50 be a5 8e 95 3e 89 b0 33 bf
       0.38404313 -0.20341982 0.29210392 -0.70191246
000100 40 46 7b be c0 ce 23 be 94 0c bb bd 4c a8 9a bc
       -0.24538517 -0.15996838 -0.091332585 -0.018879078
000110 3d 9f df bc f6 ba be bd ec e5 63 bd 14 a3 65 be
       -0.02729761 -0.09313004 -0.055639192 -0.2242549
000120 55 77 56 bd 91 8e 8c bd 51 15 d6 3d da 82 1c 3e
       -0.052359898 -0.0686313 0.104532845 0.15284291
000130 85 45 7c be a0 52 58 be e1 fb 87 3c 88 58 44 3d
       -0.24635895 -0.21125269 0.016599597 0.047935992
000140 8f 1e 84 3e 71 84 16 bc 6c d8 1a 3e 66 2e 8b 3d
       0.25804564 -0.00918685 0.15121621 0.06795959
000150 30 d1 e3 bc 38 6e 9f be 77 72 b5 3d e6 40 15 3f
       -0.02780971 -0.31138778 0.08859723 0.5830215
000160 6e d5 df 3e 59 b8 7d 3e 0d 08 dd bb 3c d2 3f be
       0.4371752 0.24777354 -0.0067453445 -0.18732542
000170 89 66 27 be 97 bf c7 3d f8 d8 00 be 6d 3d 20 3f
       -0.16347708 0.0975334 -0.12582767 0.6259373
000180 1d 34 69 3e 0d 5d f7 3e 39 d6 0a be 8f 1e 94 bd
       0.22773786 0.4831318 -0.13558282 -0.07232391
000190 a9 3e ae bc f3 eb 64 3e 7b 73 d9 bd 69 fa 46 3e
       -0.021270113 0.22355632 -0.10617729 0.19431461
0001a0 c2 b4 01 be d3 fe 65 bd 43 df c2 be c1 3c 4d 3d
       -0.1266661 -0.056151222 -0.3806096 0.050106768
0001b0 21 98 e8 be 9b 6d 53 3e 1c 68 78 3c 25 45 54 3e
       -0.45428565 0.2064728 0.01516154 0.20729502
0001c0 ea 04 88 be c2 32 70 be 77 3a 48 be 33 9e 4e 3c
       -0.2656625 -0.23456863 -0.19553553 0.01261096
0001d0 20 70 93 be 26 7e 33 be 07 35 98 be c3 33 9b be
       -0.28796482 -0.1752859 -0.29727957 -0.3031293
0001e0 9a a2 e6 bd 4b 89 e9 3d e0 9a 31 bd 06 d0 eb be
       -0.112614825 0.1140314 -0.04336059 -0.46057147
0001f0 75 2f 1a be 20 e4 08 bd fe bc 2f be e5 fe bd bc
       -0.15057166 -0.033420682 -0.17161939 -0.023192832
000200 fb 5c 8e 3e af cf 85 3e 7b 7e c8 3e d5 0b b3 bd
       0.27805313 0.26135013 0.39158997 -0.08742491
000210 04 69 1e bd 77 87 95 bd 85 93 09 bc 48 8e 3e bd
       -0.03867437 -0.073012285 -0.008396988 -0.04652241
000220 75 3c e7 bd b4 03 db 3c b9 29 b8 3d 27 23 c5 3e
       -0.11290828 0.026735164 0.08992333 0.38503382
000230 1d 97 35 be 14 25 e0 bd f3 fe 42 be e5 93 97 3e
       -0.17733426 -0.10944572 -0.19042568 0.29605022
000240 54 86 39 be 8b 59 0a bf d2 cb d1 3d 32 40 62 be
       -0.18117648 -0.5404288 0.10243954 -0.22094801
000250 3d bd 5d bd 40 49 24 bc c6 2a d2 be 60 79 5d 3e
       -0.05413555 -0.01002723 -0.4104826 0.21628332
000260 93 ce f0 3d 81 df 84 be 0b f5 58 3e a9 d5 09 3d
       0.11758151 -0.2595177 0.21187226 0.033651028
000270 24 bc 9d 3c 13 9f e5 be a1 cc 28 be 3b f1 a8 3e
       0.019254752 -0.44847926 -0.1648431 0.32996544
000280 ff 22 bd bd e2 fe a1 be 5e 98 84 3d 5a 42 9d 3e
       -0.092351906 -0.31639773 0.06474374 0.30714685
000290 4f 37 be be c4 57 87 3c a2 b8 15 bf 32 07 58 bd
       -0.37151572 0.016521342 -0.5848485 -0.052741237
0002a0 ec ed 46 bf 6c 97 a6 3c 7a 19 3b bf c6 9d 66 be
       -0.7770679 0.020335875 -0.7308575 -0.22521123
0002b0 66 9b f6 3d df 93 1b 3e 9c 6b b7 3e 9a c6 28 be
       0.12041359 0.15193127 0.35824287 -0.1648201
0002c0 f6 50 80 be bd 59 3e 3d a3 3a 74 be c4 f0 8d 3e
       -0.25061768 0.0464723 -0.23850493 0.27722752
0002d0 4a 85 82 3e 30 39 af bd 16 30 dd be dd e9 11 be
       0.25492316 -0.085558295 -0.4320075 -0.14249368
0002e0 9e d7 de be 29 3d c0 3e 51 58 09 3e 00 d8 68 bd
       -0.43523878 0.37546661 0.13412596 -0.05684662
0002f0 72 a4 e8 3d ea 96 dc 3d f7 70 19 be 2a 7a 7b bd
       0.113594905 0.10770972 -0.14984499 -0.0613958
000300 70 ba a7 bd a7 0a c0 3d e3 d2 18 be 02 fe 8a bc
       -0.08189857 0.09377032 -0.14924197 -0.016966823
000310 15 0d 37 bd df fe 59 bd bb 40 a2 3d 27 61 88 3e
       -0.04469021 -0.05322158 0.079225026 0.2663662
000320 b2 c2 b0 3e c6 08 85 3e ea 87 1e 3e f7 bf 30 3e
       0.3452354 0.25983256 0.15481535 0.17260729
000330 39 10 6f bd e0 9e 5f 3e 4c c6 ff bc 31 60 cd 3e
       -0.05836508 0.2183795 -0.031222485 0.4011245
000340 d9 d1 c3 3e ef 21 d6 3d 0d 89 43 bd 01 32 68 be
       0.3824604 0.10455691 -0.047738124 -0.22675325
000350 5a c8 5a be a8 1b e0 3e 2d 8c be be 4d c2 3a 3f
       -0.2136549 0.437711 -0.3721632 0.7295273
000360 f7 90 c5 3e c4 7c 5f be c7 26 e6 3e 93 6c bb 3d
       0.38587162 -0.21824938 0.4495146 0.09151568
000370 1c f8 28 be 3b f3 26 be ff c0 73 be ae c9 43 3f
       -0.16500896 -0.16303723 -0.23804091 0.76479614
000380 f5 21 8e bd b4 2a 3c bd 6d e9 41 3d b5 ac 34 3e
       -0.069400705 -0.045939162 0.047341753 0.17644008
000390 c9 ef f4 bd 57 19 02 bf 48 25 bd bd 9b c3 80 3e
       -0.11959798 -0.50819916 -0.092356265 0.25149235
0003a0 88 eb de be 2b 9d 6d 3c e5 0a e0 be 0c b8 0f bd
       -0.4353907 0.014502804 -0.43758312 -0.03508763
0003b0 72 77 1b 3e ad 4a 9b 3d ec 77 5c 3d 56 85 00 bf
       0.15182284 0.07582603 0.053825304 -0.50203454
0003c0 72 b7 04 bd 35 e0 d7 3e 4e 2f ac be 0c 59 47 3e
       -0.03240151 0.42163244 -0.3362984 0.19467562
0003d0 23 37 8d be 21 be 6b be 5a f4 6a 3e 86 05 ce be
       -0.27581128 -0.23021747 0.22944775 -0.4023859
0003e0 ab be 73 bd 6c bb f3 bd 91 56 23 3e 37 f9 55 be
       -0.059508007 -0.11900982 0.15950991 -0.20895849
0003f0 c6 59 cf 3d 78 da 6f be ae c1 ea be f5 b6 4b be
       0.10124545 -0.23423183 -0.4585089 -0.19894011

linear1.bias f4 [256]
000000 d6 45 a7 be 6c 0e b3 3d ad a2 6e be 6c b2 6d 3e
       -0.32670468 0.08742985 -0.23304243 0.23212594
000010 42 d3 b8 be d1 e8 cf 3d c0 bc 10 bd 24 ab 83 3c
       -0.36098677 0.10151828 -0.035336256 0.016072817
000020 c7 a5 9a bb 13 3c b4 bd 21 c1 82 3e 05 6e 8c be
       -0.004719469 -0.08800521 0.2553797 -0.27427688
000030 12 4d 38 be 2d be f2 3b be 04 f4 bd 34 59 4f 3e
       -0.1799815 0.0074079246 -0.11914967 0.20248872
000040 6f 21 ee 3c cb 2e 09 bc be 5f 7a be 7e 55 b2 3d
       0.029068677 -0.008372973 -0.24450585 0.087077126
000050 dd b2 9a bd a3 48 81 be 74 c5 9f be cb e2 21 3d
       -0.07553647 -0.2525073 -0.31205332 0.039522927
000060 20 73 94 be 25 f8 41 be 33 ae 54 bd 15 f4 b1 be
       -0.28994083 -0.18942316 -0.05192394 -0.34756532
000070 f9 8a 01 3d 80 8d bc be c2 c9 8a be 81 fd d0 bd
       0.031626675 -0.36826706 -0.27107054 -0.10204602
000080 72 1d da 3d 70 3a 4e be 7d 97 1d be 7f 18 26 bd
       0.106501475 -0.2013948 -0.1538982 -0.040550705
000090 2f 00 fa 3c 84 36 33 be 48 ad 2a 3d 3c 49 5d be
       0.030517666 -0.17501265 0.04166916 -0.21609968
0000a0 97 b9 cd 3c d8 cc 0d 3f 9c 90 70 bd 6d 96 9b bd
       0.02511291 0.5539069 -0.05873166 -0.07597051
0000b0 21 f1 4f be 8d 1b 23 3e 04 31 39 3c c5 4b 1a be
       -0.20306827 0.15928479 0.01130319 -0.15067966
0000c0 52 6a 0c 3f 35 2c 6c be 57 76 7c be c1 97 9d 3e
       0.5484973 -0.23063739 -0.24654518 0.30779842
0000d0 5b 72 85 be fd 61 40 bd 2e 65 71 be 90 96 a8 3e
       -0.2606381 -0.04696845 -0.23573753 0.3292737
0000e0 03 a4 85 bd 99 e9 a8 bd 66 ba 6f 3c 53 be cb be
       -0.065254234 -0.0824768 0.014631843 -0.39793643
0000f0 f3 76 47 bd 60 ba 82 bd 1e ca 95 be d8 5e a2 3e
       -0.048697423 -0.063832045 -0.29255766 0.31712985
000100 19 c9 f7 ba 06 08 ab 3e df 51 23 3e ec 29 b6 3d
       -0.0018904536 0.3340456 0.159492 0.08894715
000110 7b 2c 3a be 17 da a7 bd 7b 84 0a bd 75 58 6a 3d
       -0.1818103 -0.08195894 -0.03381775 0.057213265
000120 0d a4 09 3e 49 28 a5 be c7 e8 35 3e 01 02 14 be
       0.13441487 -0.32257298 0.17764579 -0.1445389
000130 93 f1 68 bd d4 1d bd be cf 30 b3 3d 9c 0b 1f 3d
       -0.056871008 -0.3693682 0.08749544 0.03882943
000140 4e cc 77 be 64 5c 4a 3d cb fa 98 be 35 b1 59 3e
       -0.2419903 0.049404517 -0.2987884 0.21259005
000150 12 30 d4 bd 75 50 de be 20 cc 54 be 7d 12 d5 bd
       -0.10360731 -0.4342076 -0.20780993 -0.10403917
000160 6a 7a 4a be 16 42 87 bd 70 ea 59 be 49 3b 61 3e
       -0.1977326 -0.06604402 -0.21280837 0.21995272
000170 27 ba a0 bd ad bb 1a 3e b3 0a 62 bd 91 fa 02 3d
       -0.07848006 0.15110655 -0.055185985 0.03197724
000180 75 11 07 be 4f 65 6b bc 4f 54 80 be 56 a3 10 bd
       -0.13190253 -0.014367416 -0.25064322 -0.03531202
000190 9f 0a 66 3e 29 00 64 3d ca e3 38 be 9c 2b ea be
       0.22464989 0.055664215 -0.18055645 -0.45736396
0001a0 c4 6d 5f bd bd 6b 52 3d 5e 3c 83 be 11 d3 79 be
       -0.05454804 0.05137228 -0.25631994 -0.24396922
0001b0 5a ea 71 3e 6d b5 3d bd 70 46 7a bc 42 10 bf 3d
       0.23624554 -0.0463156 -0.015275583 0.09329273
0001c0 47 ce ba 3d 9f 13 35 be f1 45 93 bc 40 87 0f bd
       0.091213755 -0.17683266 -0.017977687 -0.035041094
0001d0 a7 86 86 bd 6b e6 ce be ca 6e 5b 3e 0d ba d9 3c
       -0.06568652 -0.4041017 0.21428981 0.026577974
0001e0 a7 9b 10 be 4d ee 86 be 9b 15 bd bd 55 2c 9f 3c
       -0.14121877 -0.26353684 -0.092326365 0.019430319
0001f0 ff 44 53 3e 51 92 b4 3d 3b 0a 3a be 1a 6e 98 3e
       0.20631789 0.0881697 -0.18167965 0.297715
000200 79 2a 02 bd fe 59 b2 bd 1a a0 6d be 61 32 92 bd
       -0.031778786 -0.08708571 -0.23205605 -0.07138515
000210 ed b3 20 be 9d 5f e2 bd 4a 7e 18 be f5 d4 bf 3d
       -0.15693636 -0.11053393 -0.14891925 0.0936679
000220 32 74 ba bd 9d 97 4c be bc ff 82 bd 10 95 f1 bd
       -0.09104194 -0.19979711 -0.06396434 -0.117960095
000230 4a 9e 71 3d d3 e0 72 3d 06 74 22 be 9a 12 43 be
       0.058988847 0.05929644 -0.15864572 -0.19050065
000240 4e 09 ce bd de f8 3a bd 94 6e 86 be 80 29 d3 3e
       -0.100603685 -0.045647494 -0.2625624 0.412426
000250 c3 e7 22 be cf 7a 41 be 09 af 71 3d 00 e5 03 bd
       -0.15908723 -0.18894504 0.059004817 -0.032200813
000260 57 78 a9 3c 69 10 bf 3d 9f 09 85 be 87 3e 20 bd
       0.020687265 0.09329302 -0.25983903 -0.03912213
000270 54 5f 1d bc fe 6b 82 be 25 6e 3d bc fe f6 7e 3d
       -0.0096052475 -0.25473017 -0.011561905 0.06224727
000280 b9 ca 08 be 1e cc a6 bd c4 51 8a be 52 df d3 bd
       -0.13358583 -0.08144401 -0.27015507 -0.10345329
000290 91 03 3c 3e 94 a2 49 3d b6 8e dc bd 45 f4 50 3e
       0.18360735 0.049227312 -0.107694075 0.20405681
0002a0 fe 93 0a be b0 23 12 bc 7c f0 eb 3e 82 2e 29 be
       -0.13533017 -0.008919641 0.46081913 -0.16521648
0002b0 30 2e 10 3e 5b 46 4c be 8e 86 7d 3e 71 76 57 be
       0.14080119 -0.19948713 0.2475836 -0.21041276
0002c0 c4 01 7e be 6e 98 40 be 37 8b 90 be f4 e6 95 3d
       -0.24805361 -0.18808147 -0.28231212 0.073194414
0002d0 44 75 ed bd 7a f3 e3 3e 87 5d ab 3d 3f 89 65 be
       -0.11594632 0.44521695 0.08367448 -0.22415636
0002e0 97 d4 52 be 57 76 b5 3b 60 01 c4 be 79 f9 15 bd
       -0.20588909 0.005537789 -0.382823 -0.03661487
0002f0 e0 1b ac 3c 48 55 21 3c 72 f4 e6 bc 37 99 09 be
       0.021009386 0.009846993 -0.028192732 -0.13437353
000300 59 f6 ca 3d d8 c0 e9 3d 9c fa 7d be db c2 24 3d
       0.09910268 0.11413735 -0.24802631 0.04022489
000310 85 9b 7c be 54 8a 7c be 47 df 58 3b c2 a4 8b bd
       -0.24668701 -0.24662143 0.0033092068 -0.068185344
000320 e8 eb f8 3d d7 9b a1 3c ac 4a b8 3d b0 08 fd bb
       0.121543705 0.01972763 0.089986175 -0.007721983
000330 6d f3 c2 3d 20 1a 65 3d 2b 9f 28 be ea ee 0a be
       0.09519086 0.055933118 -0.16466968 -0.13567701
000340 e4 bd d5 3d 4b 0f 0b 3f 1b 0d 26 be be 49 9e 3e
       0.104366094 0.5432021 -0.16215937 0.30915636
000350 a4 fc 13 3e f0 84 85 3e 16 01 1d be bb c7 9f be
       0.14451844 0.26077986 -0.15332446 -0.3120707
000360 78 c1 93 bc b8 0d f9 3b 8b 0f 8d be 29 82 54 be
       -0.018036589 0.0076005124 -0.2755092 -0.20752777
000370 7f 16 91 be 0f 4f dc bd e4 fd 4b 3e 3f 5e 63 3e
       -0.28337476 -0.10757267 0.1992107 0.22203921
000380 49 b1 10 be c4 8f 61 3d e8 32 20 be a8 c1 39 bd
       -0.14130129 0.055068746 -0.15644419 -0.0453507
000390 7f c8 8c be de 69 b0 3d e3 1d 98 bd b6 0f 32 3d
       -0.27496716 0.086139426 -0.074275754 0.043472014
0003a0 f6 98 08 be f7 dd 1e 3e 97 7e 8c be 22 7d 68 be
       -0.133396 0.1551436 -0.2744033 -0.22703984
0003b0 31 d6 2b 3e 23 09 15 bc 39 24 78 3e 10 f5 b2 3c
       0.16780926 -0.009096417 0.24232568 0.02184537
0003c0 93 25 41 3d e0 1f 83 3d aa 59 82 be 98 49 77 be
       0.047154974 0.06402564 -0.25459033 -0.24149168
0003d0 63 6d 35 be f1 70 85 bd f9 cf 23 3e 88 13 d9 3b
       -0.17717509 -0.065156825 0.15997304 0.0066246428
0003e0 c0 fd 82 3e e6 1d b1 be 0b b5 8d be 98 bf 2b be
       0.2558422 -0.34593123 -0.27677187 -0.16772306
0003f0 38 8a 49 be f1 30 7b 3d 7e 58 68 be 11 49 b4 be
       -0.19681633 0.06132597 -0.22690007 -0.35211995

linear2.weight f4 [3, 256]
000000 16 d3 cd 3d aa 1f 81 be 1a d0 3b bf e4 52 17 3f
       0.10050027 -0.2521947 -0.7336441 0.59110856
000010 7a 86 90 bc 8d e8 2d be bc f1 29 3d e2 d6 2f bd
       -0.017642248 -0.16983242 0.0414903 -0.042929538
000020 e1 2b 24 bb 4d 62 e2 bd e4 da 07 3f f2 d1 d0 bc
       -0.0025050568 -0.11053906 0.53068376 -0.025490735
000030 e3 47 d5 bd c3 83 04 bf 9a 50 1f 3e 81 c3 7c 3e
       -0.10414102 -0.5176355 0.15558091 0.24683954
000040 4f 83 03 3f 39 63 3d be 97 6e 4f be 8e a4 17 3e
       0.51372236 -0.18494882 -0.2025703 0.14808866
000050 a3 27 20 3e 6e 95 97 3d d5 36 89 3d 60 89 95 3e
       0.1564012 0.07401548 0.066999115 0.2920637
000060 97 48 8e bd 0b d2 8e bb 2d 26 89 bd 3b c0 69 3d
       -0.06947439 -0.004358535 -0.066967346 0.05706809
000070 03 6d 88 3e 4b 3e 76 bd a3 f7 9a be 6a 66 de be
       0.2664567 -0.060118 -0.30267057 -0.4343751
000080 94 c5 91 3e e4 84 b5 bd a3 93 53 3e fe e8 f8 be
       0.28471053 -0.088632375 0.20661788 -0.4861526
000090 50 a1 a2 be a2 78 45 be 70 c2 de be f3 ed 1f bd
       -0.31763697 -0.19284299 -0.4350772 -0.039045285
0000a0 08 f3 ce be 46 3a 9e 3c 09 4e 15 bf 81 1a da bd
       -0.40419793 0.019314896 -0.583222 -0.106495865
0000b0 7d d4 d3 3d d6 3b 4b be 07 0a d6 3d c2 e1 d3 bd
       0.10343263 -0.19847044 0.10451131 -0.10345794
0000c0 7f 22 44 3e 41 8a ae 3d 23 93 48 bf ed 4d f8 3d
       0.19153784 0.085224636 -0.7834951 0.12124238
0000d0 46 34 18 bd 0c 30 39 3e 13 13 9d bd 7f c2 f2 3d
       -0.037159227 0.18084735 -0.07669654 0.118535034
0000e0 47 60 b5 be 72 bd 83 be 7b 27 3b be 8f 25 2d be
       -0.35425016 -0.25730473 -0.1827678 -0.16908859
0000f0 2f e5 87 3b dc 58 8d be a7 cd a4 3e 8b 31 16 3d
       0.004147194 -0.27606857 0.3218815 0.03666834
000100 ac 03 34 bc d1 56 9f 3d 6a b1 ff 3d 73 c7 cd be
       -0.010987204 0.07780231 0.12485011 -0.4019123
000110 1d 9c 7e bc 47 66 8c be 4b d3 65 3e c5 3a 45 3d
       -0.01554015 -0.2742178 0.22443883 0.04815175
000120 ba a0 94 be 7f 3b 80 bd a9 90 e1 ba 54 3f 84 bc
       -0.29028875 -0.06261348 -0.001720925 -0.016143478
000130 00 a6 31 3e da b7 94 bc 2d c5 f6 bc 49 f6 ca 3e
       0.1734848 -0.018154074 -0.030123318 0.39641026
000140 57 04 3a 3e b8 d0 69 be ba 18 2b 39 ce a7 77 3e
       0.18165718 -0.22833526 0.00016317042 0.24185106
000150 fb 1e 1c 3e 6e 76 e0 bb fc d3 ff be 7e 57 32 bc
       0.15246193 -0.0068500554 -0.4996642 -0.010885118
000160 f5 fb 4f be 83 02 02 bb 9a 15 a0 bc dc a4 03 3f
       -0.20310958 -0.0019837923 -0.01954155 0.5142343
000170 5c 96 54 3e d5 d4 73 3d 27 de ca be a3 2d 9b 3e
       0.20760483 0.059529144 -0.39622614 0.30308256
000180 8a 48 ab be 96 c3 80 bd 15 f4 03 bc b9 85 5e bd
       -0.3345378 -0.06287305 -0.008053799 -0.054326747
000190 be 43 67 3d 76 f3 e2 3e 66 cb c0 bc cd ba 49 bc
       0.05646109 0.4432637 -0.023534488 -0.012312603
0001a0 3d c8 f6 bd cc 42 42 bf 7c 73 b0 3c dc 41 77 3c
       -0.12049911 -0.75883174 0.021539442 0.015091386
0001b0 4d 36 0a 3f a5 1d b1 bb 41 74 b5 bd 54 fb 7c bd
       0.53989106 -0.005405145 -0.08860064 -0.061763123
0001c0 ad 31 ce 3e 1a 3d 4b be e9 1a de be 13 0f 0e 3e
       0.40272275 -0.19847527 -0.43379906 0.13872938
0001d0 3a 05 9a 3d 07 50 e0 3d 6f 1e 4f 3d 98 4f 8c bd
       0.07520528 0.10952764 0.050566133 -0.06851119
0001e0 fb a9 8f bd 58 46 38 3e 93 63 85 be 61 1f 1a 3e
       -0.07014843 0.17995584 -0.26052532 0.15051033
0001f0 47 80 d9 3e f1 da 93 bd a6 02 c6 bd 67 a4 7c 3d
       0.4248068 -0.07219494 -0.09668474 0.061680224
000200 40 96 94 3d b2 ea 7c bd ff 2e 65 bc 8e b7 28 be
       0.072552204 -0.06174726 -0.0139882555 -0.1647627
000210 7b 4b 4a bf 95 58 92 be 36 34 c6 be 36 24 16 3e
       -0.79021424 -0.28583208 -0.3871171 0.14662251
000220 6d a0 16 bf 2b c0 0b be 9a b6 d6 bd 5b 5b 29 bf
       -0.5883854 -0.13647525 -0.10484047 -0.6615502
000230 58 fb 21 3c 4e ef 01 be e0 dc a6 bd 46 cd 23 3e
       0.009886585 -0.12688944 -0.08147597 0.15996274
000240 df 20 4b be 8a f3 9e be 9c 19 ed 3c 16 c2 d1 3d
       -0.19836758 -0.3104518 0.028942876 0.10242097
000250 14 c2 f8 bd 3f 62 13 bf 8f df d1 3e d1 80 78 3d
       -0.121463925 -0.57571787 0.40990874 0.060669724
000260 75 5b 0f be 0e 90 00 3f 02 8b 3a be 3f bd 09 be
       -0.13999732 0.5021981 -0.1821709 -0.13451098
000270 9c 55 8c 3c 3b fc 5a bd e3 04 b9 be 17 aa ef 3e
       0.017130665 -0.053463202 -0.3613654 0.46809456
000280 d1 30 90 bb 99 f4 ef bc 41 5a d9 be 85 6c 5f be
       -0.0044003506 -0.029291438 -0.4245167 -0.2181874
000290 c2 f0 4c be 00 7c a8 bd f1 60 74 3e 0d 2e fb 3e
       -0.20013717 -0.08226776 0.23865105 0.4905857
0002a0 63 fb cb 3b c5 42 a8 be 49 d1 a8 3e ad 28 b5 be
       0.006225036 -0.3286344 0.32972172 -0.35382596
0002b0 17 61 da 3e 20 1b d1 bd 80 b7 bf 3b 15 6c 8c be
       0.426522 -0.10210252 0.0058507323 -0.2742621
0002c0 3e 6b 61 3d 2f 90 b4 3d d1 e8 58 3c d3 e6 ad 3e
       0.055033915 0.08816563 0.0132391015 0.33965167
0002d0 6c 31 2a 3d 08 cb 22 3e fd d6 b1 be 3b 4b 59 ba
       0.04155104 0.15897763 -0.34734336 -0.0008289103
0002e0 37 3d 6e bb 27 65 d8 bd 72 ab e2 be 77 d8 a5 be
       -0.0036352405 -0.10566168 -0.44271427 -0.32391712
0002f0 02 71 95 bd 7f 63 df be 78 e2 c4 ba a4 9d 0a be
       -0.07296945 -0.43630597 -0.0015021106 -0.13536698
000300 23 6e 2c bd 04 8e 25 bd 7c 10 11 bf e5 06 ea be
       -0.042097222 -0.04041864 -0.5666578 -0.45708385
000310 6d d9 11 be 96 0f cb bc 6f 26 23 3d 06 ac 1e bd
       -0.14243098 -0.024787705 0.039831575 -0.038738273
000320 27 f4 a5 be de a8 18 bf bb 38 97 3e d8 17 bc be
       -0.32412836 -0.5963267 0.2953547 -0.3673694
000330 ec b0 9f bc 0c 7a b7 bd 91 6c 48 3d 83 62 c5 be
       -0.019493543 -0.089588255 0.048931662 -0.3855172
000340 5a 68 b9 3d d7 82 b2 3e 51 ad e8 bd a6 73 ce 3d
       0.090531066 0.34865448 -0.113611825 0.10080652
000350 66 10 23 bd 43 1c 89 3b e0 1e 36 bc 34 1e 88 be
       -0.03981056 0.0041842773 -0.01111576 -0.26585543
000360 42 b6 71 3e 1e ff 95 3e 99 15 01 bf 09 f1 c6 be
       0.23604682 0.292962 -0.5042358 -0.3885577
000370 d2 d4 c1 be 68 df e0 3e a7 fc 79 be e7 fa 2d 3e
       -0.37857682 0.43920445 -0.24412785 0.16990243
000380 12 fc 8b 3d 65 a1 2d 3e c0 d2 88 bb c3 c4 3b 3c
       0.06835188 0.16956098 -0.004175514 0.011460486
000390 5d 9e 4a 3d 99 92 db 3e 65 ed aa bd cb e9 35 be
       0.049467433 0.42885283 -0.08346061 -0.17764966
0003a0 30 08 03 3d a7 d1 37 be 80 95 b7 3c b8 35 4c bc
       0.03199023 -0.1795107 0.022410154 -0.012463979
0003b0 e8 9d b3 bd bb 54 9e bd 80 a2 ba 3e f7 a0 75 3e
       -0.087703526 -0.07731005 0.36452103 0.23987184
0003c0 e1 4e 41 3e ed da fb 3d c2 46 d3 be e3 2a f0 bc
       0.18877746 0.12297616 -0.4126492 -0.029317325
0003d0 f4 75 3c 3c 8f 45 d0 3c 4d 0c b2 3e 21 0a cf bd
       0.011502732 0.025423793 0.3477501 -0.10109354
0003e0 c9 9c f4 bd 0a 77 b0 3d 8c 8a 17 3d 15 d2 1b bd
       -0.11943967 0.08616455 0.036997363 -0.038042147
0003f0 a1 ee 59 bd 0f 8b 81 3e a6 45 6f be 59 ff 7e be
       -0.05320609 0.25301406 -0.23366413 -0.24902095

linear2.bias f4 [3]
000000 83 37 75 3e b4 80 d3 bd af a4 7e be
       0.23946957 -0.103272825 -0.2486751
